results/MIMIC/CAMELOT/run1/unnorm_weights.npz (npz, 358186 bytes, 3 tensors)

alpha f4 [657, 8, 9]
0	0xc0823780	-4.069275
1	0x3ee2526a	0.44203502
2	0x3e47f070	0.19525313
3	0xc07fd78e	-3.9975314
4	0x40626578	3.5374432
5	0xbec4363b	-0.38322625
6	0x3ea4c6ae	0.3218283
7	0x3f87ba96	1.0603817
8	0xc09f2205	-4.972903
9	0x41172edb	9.448939
10	0xbf282f7f	-0.65697473
11	0xc05d7637	-3.4603403
12	0xc09b519c	-4.853712
13	0x40366f8c	2.8505583
14	0x3f837274	1.0269303
15	0xc00b61fc	-2.1778555
16	0x3fb407e3	1.4064907
17	0xc14c45f2	-12.7670765
18	0x411815e5	9.505345
19	0xbee8e492	-0.45486885
20	0xc03dac07	-2.9636247
21	0xc0f513f5	-7.658686
22	0x407246fc	3.7855825
23	0x3fabdddd	1.3427082
24	0xc0407ba6	-3.007547
25	0x3fb001de	1.375057
26	0xc1618594	-14.095112
27	0x4122c256	10.172445
28	0xbe99d1cb	-0.30042872
29	0xc03a4eb4	-2.9110537
30	0xc0be8773	-5.9540343
31	0x40bf350d	5.975226
32	0x3fcadba7	1.5848283
33	0xbfd0135a	-1.6255906
34	0x3fbba563	1.4659847
35	0xc1787c80	-15.5303955
36	0xc0c9eaf7	-6.309932
37	0x3fd88c1e	1.691776
38	0x3f3900df	0.72266954
39	0xc144aee1	-12.292695
40	0x4020a952	2.5103345
41	0xbd33f240	-0.0439322
42	0xbc02c3c0	-0.007981241
43	0x3f8b7c22	1.0897257
44	0xc13ce1dd	-11.805142
45	0xc119de02	-9.616701
46	0x3fef4574	1.869307
47	0x3f8e8ffb	1.1137689
48	0xc11358c2	-9.209169
49	0x400877f4	2.1323214
50	0xbeaf43f0	-0.3423152
51	0x3e993ec7	0.29930708
52	0x3f714afb	0.94255036
53	0xc1348842	-11.283266
54	0xc0e5e78e	-7.184516
55	0x402da237	2.7130258
56	0x3f03de88	0.5151143
57	0xc10cd9fc	-8.803219
58	0x3ff65309	1.924409
59	0x3dcddf40	0.10052347
60	0x3d1a27a4	0.03763546
61	0x3f7492d2	0.9553653
62	0xc1486d69	-12.526711
63	0xc0ed26d6	-7.4109907
64	0x402b6c32	2.6784787
65	0x3f0c7a15	0.5487378
66	0xc10f32d0	-8.949905
67	0x3ffe8fc1	1.988762
68	0x3e014d38	0.12627113
69	0x3cceedb8	0.025259838
70	0x3f6c1296	0.9221586
71	0xc1479e46	-12.476141
72	0xc047ff15	-3.124944
73	0x3f0b2b9a	0.54363406
74	0x3c5a6c88	0.01333154
75	0xc0c48e8a	-6.1424
76	0x3f987ec6	1.1913688
77	0xbedafeae	-0.4277243
78	0xbd785160	-0.06062448
79	0x3f9f1d6a	1.2430851
80	0xc09d8a6c	-4.923147
81	0x4111f423	9.122104
82	0xbf36c0aa	-0.7138773
83	0xc035c278	-2.8399944
84	0xc0804376	-4.008235
85	0x40216d77	2.5223062
86	0x3f8cfe73	1.1015152
87	0xbfa8f94b	-1.3201078
88	0x3fd6f36f	1.679304
89	0xc14f64de	-12.962126
90	0xc0a4d6de	-5.151229
91	0x3fdd5420	1.7291298
92	0x3ee9c3ad	0.456571
93	0xc07962f6	-3.896665
94	0x40420db0	3.0320854
95	0xbee7ba44	-0.45259297
96	0x3ee92352	0.4553476
97	0x3fd49c91	1.661028
98	0xc139deec	-11.616924
99	0xc0bfcd09	-5.9937787
100	0x3fea2562	1.8292658
101	0x3f29c58c	0.6631706
102	0xc03e2683	-2.9711006
103	0x408822e0	4.254257
104	0xbed79d7c	-0.4211234
105	0x3f1ac2f6	0.60453737
106	0x3fd56177	1.6670369
107	0xc13eccbc	-11.924984
108	0xc1032f39	-8.199029
109	0x3fec6269	1.8467532
110	0x3f794136	0.9736513
111	0xc0f9de46	-7.808383
112	0x403b9627	2.9310396
113	0xbf103376	-0.56328523
114	0x3e9e3747	0.30901548
115	0x3fb40a4a	1.406564
116	0xc134b34b	-11.293773
117	0xc108f1d0	-8.559036
118	0x3ff7ef47	1.9369897
119	0x3f920342	1.1407244
120	0xc1025b1f	-8.147246
121	0x403deccd	2.9675782
122	0xbf09fd46	-0.5390209
123	0x3ebf9cc8	0.37424302
124	0x3faad6c5	1.3346792
125	0xc1334a02	-11.205568
126	0xc0cf4c58	-6.4780693
127	0x4032f6de	2.7963176
128	0x3ed7f758	0.42180896
129	0xc0f9525a	-7.7913027
130	0x4016987e	2.3530574
131	0x3d1e5820	0.03865826
132	0x3dc994fc	0.0984287
133	0x3fa67dd0	1.3007145
134	0xc14814ad	-12.505048
135	0xc0d6c776	-6.7118483
136	0x4030bd56	2.7615561
137	0x3ef5e4fa	0.48026258
138	0xc0fe47a8	-7.946247
139	0x401ab479	2.4172652
140	0x3dbf7760	0.09348941
141	0x3dc1c9ee	0.09462343
142	0x3f9f8a83	1.2464145
143	0xc147b5eb	-12.481914
144	0xbfb98a30	-1.4495296
145	0xc10deedd	-8.870816
146	0xbe5ec3c4	-0.21754366
147	0xc0481f46	-3.1269088
148	0x408c0cd6	4.376567
149	0xbdf146fa	-0.11781116
150	0x3eb7f875	0.35931745
151	0x408611cc	4.1896725
152	0xc0ab7af4	-5.358759
153	0xbe920cc3	-0.2852536
154	0xc14c590a	-12.771738
155	0xbfb94c10	-1.4476337
156	0xc0d2dd45	-6.5895104
157	0x40913d39	4.5387235
158	0x3e3d868c	0.18508357
159	0xbf4156aa	-0.75522864
160	0x40cb72bf	6.357757
161	0xc102ba77	-8.170524
162	0x3fa682f6	1.3008716
163	0xc155efc1	-13.371034
164	0xbfbfd688	-1.4987345
165	0xc1096ddd	-8.589322
166	0x40c3f405	6.1235375
167	0x3f2b75f4	0.6697686
168	0xbf658caa	-0.8966776
169	0x40d88381	6.7660527
170	0xc120517e	-10.019896
171	0x404b085f	3.172386
172	0xc1668455	-14.407308
173	0xbfc75284	-1.5572057
174	0xc0caa4b8	-6.3326073
175	0x4106a95f	8.41635
176	0x3f796cfe	0.97431934
177	0xbf2e7232	-0.68143
178	0x40e89cb0	7.269127
179	0xc12f7a60	-10.967377
180	0xbfc959c2	-1.5730517
181	0xc159da88	-13.615852
182	0xbf4ab584	-0.7918322
183	0xc10cf050	-8.80867
184	0x410aa948	8.666328
185	0x3f5f34d8	0.8719001
186	0xbe03e727	-0.12881146
187	0x40b61db2	5.691125
188	0xc145f534	-12.372364
189	0xbfce3af0	-1.6111736
190	0xc156a768	-13.415871
191	0xbf3e2692	-0.74277604
192	0xc10ffe82	-8.999636
193	0x4109401c	8.578152
194	0x3f6a59c1	0.91543204
195	0xbdf961f4	-0.12176886
196	0x40afaee7	5.4901004
197	0xc146e0dd	-12.429898
198	0x3fe934c4	1.8219228
199	0xc147fe90	-12.499649
200	0xbfd1187e	-1.63356
201	0xc118671e	-9.525175
202	0x40ad6a9e	5.419265
203	0x3f8961a7	1.0732926
204	0xbf65056a	-0.89461386
205	0x40c0c088	6.0235023
206	0xc132b6dd	-11.169644
207	0x401c205e	2.4394755
208	0xc14ae485	-12.680791
209	0xbfeb33f4	-1.837523
210	0xc1170007	-9.437507
211	0x40b66fb6	5.7011366
212	0x3f8b9224	1.0903974
213	0xbf6897d0	-0.9085665
214	0x40f93dee	7.78881
215	0xc13390bb	-11.222835
216	0xc0116168	-2.2715702
217	0xc0e67128	-7.201313
218	0xbe74d125	-0.23907907
219	0xc08fe3b2	-4.496545
220	0x40543071	3.3154566
221	0xbe00e9ad	-0.1258914
222	0xbcaef3ae	-0.02135643
223	0x3f5280f6	0.8222803
224	0xc08d74e6	-4.42052
225	0xc033287b	-2.7993457
226	0xc146f9bd	-12.435971
227	0xbf1348a0	-0.5753269
228	0xc10c6e13	-8.776874
229	0x40611f16	3.5175223
230	0x3e218850	0.15774655
231	0xbf7519bf	-0.9574241
232	0x3f23c106	0.63966405
233	0xc0fdd096	-7.931712
234	0xbfc50744	-1.5392842
235	0xc1690e71	-14.566026
236	0xbdc89b24	-0.09795216
237	0xc0b692dc	-5.705427
238	0x419959ca	19.168842
239	0x3f6e322e	0.9304532
240	0x3fd7bf22	1.6855204
241	0x3fc87f74	1.5663896
242	0xc143e67a	-12.243769
243	0xbfcd930e	-1.6060503
244	0xc163fb41	-14.248841
245	0x3f02a2ef	0.51029867
246	0xc081f33a	-4.0609407
247	0x41ab08f2	21.379368
248	0x3facd398	1.3502073
249	0x40057f0d	2.0858796
250	0x3fca4d50	1.5804844
251	0xc1508932	-13.033495
252	0xbfa2d0b6	-1.2719944
253	0xc15f5b7b	-13.959834
254	0xbf073412	-0.5281383
255	0xc11a845d	-9.657315

beta f4 [1, 8, 1]
0	0xbc841100	-0.016121387
1	0x3d252761	0.040320758
2	0xbc7e8a98	-0.015535973
3	0xbad42940	-0.001618661
4	0x3ccd3372	0.025048945
5	0xbd48035a	-0.04883132
6	0x3c5152dc	0.012776103
7	0x3c9c7ad2	0.019101534

gamma f4 [657, 8, 8]
0	0xbfa93860	-1.3220329
1	0x411afa00	9.686035
2	0xc15c6bc0	-13.776306
3	0x40db5600	6.854248
4	0x40939a00	4.612549
5	0x40fe1f00	7.941284
6	0xc28123c0	-64.569824
7	0x424e1680	51.521973
8	0xbf539a00	-0.8265686
9	0x406cdc80	3.7009583
10	0xc0730400	-3.7971191
11	0x3ff77900	1.9333801
12	0x40931400	4.5961914
13	0x3fe75d00	1.8075256
14	0xc2287500	-42.114258
15	0x420da500	35.411133
16	0xc0421d40	-3.0330353
17	0x4105f400	8.37207
18	0xc18fd7e0	-17.980408
19	0x411c1860	9.755951
20	0xbf006800	-0.5015869
21	0x40bb1fa0	5.8476105
22	0x41027a00	8.154785
23	0xc133b800	-11.232422
24	0x3fe20bc0	1.7659836
25	0xc102b140	-8.168274
26	0x41439900	12.2248535
27	0xc0e97f00	-7.296753
28	0xbfae8a00	-1.3635864
29	0xc1445598	-12.270897
30	0x42716e00	60.35742
31	0xc237f680	-45.990723
32	0xbfb77600	-1.4332886
33	0x410e6ac0	8.901062
34	0xc1566280	-13.399048
35	0x40d6dc80	6.7144165
36	0x409e9c80	4.956604
37	0x40bb6640	5.8562317
38	0xc2652400	-57.285156
39	0x423aa000	46.65625
40	0xc0208abd	-2.508468
41	0xbd75b400	-0.059986115
42	0xbfb6d420	-1.4283485
43	0x3e889c00	0.2668152
44	0xc0063df8	-2.0975323
45	0xbffb3a10	-1.9627094
46	0x426c5590	59.083557
47	0xc25348a8	-52.820953
48	0xbf8295c0	-1.020195
49	0x40972100	4.7227783
50	0xc0939140	-4.6114807
51	0x40044b40	2.067093
52	0x4083ecc0	4.12265
53	0x40970ed0	4.720558
54	0xc2352e00	-45.29492
55	0x420f8b00	35.885742
56	0x3f881ac0	1.0633163
57	0xc08c2200	-4.3791504
58	0x40f76e00	7.7321777
59	0xc09766c0	-4.7312927
60	0xbf6b6300	-0.91947937
61	0xc0bd24a8	-5.9107246
62	0x42216f00	40.3584
63	0xc204fc40	-33.246338
64	0x3f460bc0	0.7736168
65	0x40413270	3.0187035
66	0x40c1b860	6.0537567
67	0xbde78000	-0.11303711
68	0xc130eb00	-11.057373
69	0x41a2d680	20.354736
70	0xc2bc1080	-94.03223
71	0x4299d380	76.913086
72	0x3dae0800	0.0849762
73	0x40249fc0	2.5722504
74	0x40bfb2c0	5.99057
75	0xc0829ac0	-4.0813904
76	0xc0fff400	-7.998535
77	0x4172cf00	15.175537
78	0xc26a5300	-58.581055
79	0x42410400	48.253906
80	0xc023cbe0	-2.5593185
81	0xbef9b780	-0.48772812
82	0x40eb9a80	7.36261
83	0xbf4b0c00	-0.79315186
84	0xc1b09e00	-22.077148
85	0x41a6a780	20.831787
86	0xc0943000	-4.6308594
87	0x3fc70000	1.5546875
88	0x3f349680	0.70542145
89	0xc06e3ed0	-3.7225838
90	0xc0b75d40	-5.730133
91	0x3f6b8400	0.9199829
92	0x419f5480	19.91626
93	0xc1f3e000	-30.484375
94	0x4297f000	75.96875
95	0xc26bb000	-58.921875
96	0x3f3c7a80	0.7362442
97	0x4035dab0	2.8414726
98	0x40da1a40	6.8157043
99	0xc004c380	-2.0744324
100	0xc1a6a300	-20.82959
101	0x41e4a300	28.57959
102	0xc28fd300	-71.91211
103	0x42676500	57.848633
104	0xc03c1d3e	-2.9392848
105	0xbfdf2356	-1.7432659
106	0x3ffc17d0	1.9694767
107	0xc0182960	-2.3775253
108	0xc10226e0	-8.134491
109	0x40073680	2.1127014
110	0x4292b870	73.36023
111	0xc2808810	-64.26575
112	0x3e469380	0.19392204
113	0x40269064	2.602563
114	0x409a2c80	4.817932
115	0xc011cc80	-2.2781067
116	0xc0107e00	-2.2576904
117	0x4132dc80	11.178833
118	0xc28a7a80	-69.23926
119	0x42614180	56.313965
120	0x3e2e4a80	0.17020607
121	0xbfed78d8	-1.8552504
122	0xc0090600	-2.1409912
123	0x3e4a8400	0.19776917
124	0x4192eac0	18.364624
125	0xc1b98a80	-23.192627
126	0x42087100	34.11035
127	0xc1d12900	-26.14502
128	0x3f50e400	0.815979
129	0x3f18b800	0.5965576
130	0xc1094fb0	-8.581955
131	0x40af9048	5.4863625
132	0x4237f3b8	45.988007
133	0xc232ffc0	-44.749756
134	0xbfe3c300	-1.7793884
135	0x40527780	3.2885437
136	0x3efd4900	0.49469757
137	0xbf838780	-1.0275726
138	0xc0b4d820	-5.6513824
139	0x3fcff6d8	1.6247206
140	0x42400280	48.00244
141	0xc239faa0	-46.49475
142	0x40d68400	6.7036133
143	0xc03a5a80	-2.9117737
144	0xc0931dc0	-4.5973816
145	0x40ea67c0	7.325165
146	0xc17b77b0	-15.716721
147	0x41098777	8.595572
148	0x41cc8ea8	25.569656
149	0xc1a36130	-20.422455
150	0xc196b328	-18.837479
151	0x41823fc8	16.281143
152	0x3eaefd00	0.341774
153	0xbeca0000	-0.39453125
154	0x408bf0c0	4.3731384
155	0xc107ba9e	-8.483061
156	0xc1272e40	-10.4487915
157	0x4119b500	9.606689
158	0x41399260	11.598236
159	0xc0e7d580	-7.244812
160	0x3f55f680	0.83579254
161	0x3f37ec00	0.7184448
162	0xc1130f60	-9.191254
163	0x4098ce9d	4.7752213
164	0x422b35f0	42.802673
165	0xc2248238	-41.127167
166	0xc04da980	-3.2134705
167	0x40b21180	5.564636
168	0xc09a3d48	-4.8199806
169	0x40fb6480	7.856018
170	0xc144f2d0	-12.30928
171	0x4023c329	2.5587866
172	0x4194cfe4	18.60151
173	0xc17905d0	-15.563919
174	0xc13908f0	-11.564682
175	0x414ea270	12.914658
176	0x3f3e2d80	0.7428818
177	0xbfe04100	-1.7519836
178	0xc0957480	-4.670471
179	0x3ff4862e	1.9103448
180	0x425b5fb0	54.843445
181	0xc256c2f4	-53.690384
182	0x40d65e80	6.6990356
183	0xc0551800	-3.3295898
184	0xbee0ef80	-0.43932724
185	0x3c46c000	0.012130737
186	0x3fc0f0c0	1.5073471
187	0xc05d9cbe	-3.4626918
188	0x412c8360	10.782074
189	0xc12604f0	-10.376205
190	0x40c06120	6.011856
191	0xc0916a00	-4.5441895
192	0xbf917470	-1.1363659
193	0x3f4a5600	0.79037476
194	0x3f8e6400	1.1124268
195	0xbf02ac00	-0.510437
196	0x41443500	12.262939
197	0xc14dd500	-12.864502
198	0x3f882dc0	1.0638962
199	0xbe2d3800	-0.16915894
200	0xbfb55630	-1.4166927
201	0x3f31e400	0.69488525
202	0xbea54000	-0.3227539
203	0x3f2afe00	0.66793823
204	0x41696e00	14.589355
205	0xc181f480	-16.244385
206	0x3e9d7400	0.30752563
207	0x40052480	2.0803528
208	0xbfe312d8	-1.7740126
209	0x410a1d50	8.632156
210	0xc06c8c00	-3.696045
211	0x406fe780	3.7485046
212	0xc28e82d8	-71.255554
213	0x4292d6c0	73.41943
214	0x4047baa0	3.1207657
215	0xc13795a0	-11.47403
216	0x3fd25c70	1.643446
217	0xc08501c0	-4.1564636
218	0x4009f600	2.1556396
219	0xbffe9b00	-1.9891052
220	0x41834d80	16.412842
221	0xc1977900	-18.934082
222	0xc00a5da0	-2.1619644
223	0x40c48f80	6.142517
224	0xbe575200	-0.21027374
225	0x3ffc2e00	1.9701538
226	0xbedd9800	-0.4328003
227	0x3f31b400	0.69415283
228	0xc0f0e400	-7.527832
229	0x40f0d000	7.5253906
230	0x3fb4c480	1.4122467
231	0xc0064a00	-2.0982666
232	0xbfc1a2b8	-1.5127783
233	0x407770c0	3.8662567
234	0xbfd5fc80	-1.6717682
235	0x3fa12680	1.2589874
236	0xc1ff03c0	-31.876831
237	0x420362c0	32.846436
238	0x3fb1fb40	1.39048
239	0xc0a0d5c0	-5.0260925
240	0xbfe03ca0	-1.7518501
241	0xbf2dfa00	-0.67959595
242	0x3fb77700	1.4333191
243	0xbf499600	-0.78744507
244	0x41eff500	29.994629
245	0xc1fd3100	-31.648926
246	0x3cba8000	0.022766113
247	0x40533280	3.2999573
248	0x3eb81bc0	0.35958672
249	0xc0152940	-2.3306427
250	0x3fd6fb00	1.6795349
251	0xbf9aeec0	-1.2104111
252	0x41a5eb00	20.739746
253	0xc1b4ca40	-22.598755
254	0xbfa1fe60	-1.2655754
255	0x4081b600	4.053467
